class_10/my_mnist_model.pt (torch_old, 439808 bytes, 6 tensors)

weight f4 [128, 784]
0	0xbbd076cd	-0.0063618184
1	0x394be1f4	0.00019443763
2	0x3cc43b99	0.0239542
3	0x3bcf5737	0.0063275355
4	0xbc5e3068	-0.013561346
5	0x3cd6f297	0.026238723
6	0x3b04af85	0.002024622
7	0xbc83d74d	-0.016093874
8	0xbc5f93aa	-0.013646046
9	0x3c825b61	0.015912713
10	0x3cf469b1	0.029835554
11	0x3be41920	0.006961003
12	0xbc453f37	-0.012038997
13	0x3c237e65	0.009978865
14	0x3d0d889a	0.0345541
15	0x3b8b601e	0.0042534014
16	0xbce945b4	-0.02847562
17	0xbc6ff243	-0.014645162
18	0xbcf26180	-0.029587507
19	0xbcc7e462	-0.024400894
20	0xbd0018b9	-0.031273577
21	0x3ca57d5e	0.020201381
22	0xbce07136	-0.027397733
23	0x3c66bd4a	0.014083216
24	0x3c570a0f	0.013124957
25	0xbc9b527b	-0.018960228
26	0xbd02b7a5	-0.03191342
27	0xbc84de0b	-0.01621916
28	0x3d0a2463	0.033726107
29	0x3d1de698	0.03854999
30	0x3980b932	0.00024552044
31	0x3c8f2d07	0.017477525
32	0xbcd12434	-0.025529958
33	0xbcdb27bc	-0.026752345
34	0x3c5ff66e	0.013669593
35	0x3b57099f	0.003281213
36	0xbc5baf79	-0.013408535
37	0x3d0c6425	0.034275193
38	0x3c56d33a	0.013111884
39	0x3b1e250c	0.0024130968
40	0x3c0b3182	0.00849569
41	0x3c8ac903	0.016941553
42	0x3a822205	0.0009928352
43	0x3a0f2a4e	0.0005461321
44	0xbc4d6154	-0.012535412
45	0x3ca0a8f6	0.019611817
46	0x3caf3d0c	0.021391414
47	0xbc7869fe	-0.015161989
48	0xbb968fa2	-0.004594759
49	0x3c44da76	0.012014976
50	0xbcf02e96	-0.029319089
51	0x3d1acfea	0.03779594
52	0x3d134db8	0.03596279
53	0x3d0e7c32	0.03478641
54	0xbd00dd35	-0.03146096
55	0xbb98a051	-0.004657783
56	0x3cd6db63	0.026227659
57	0x3c053369	0.008129933
58	0xbcea9835	-0.028637031
59	0x3c176316	0.0092399325
60	0x3c784a39	0.015154415
61	0x3cb70ca2	0.022344891
62	0xbcae41df	-0.021271644
63	0x3d2ff052	0.042953797
64	0xbc542279	-0.012947672
65	0xbacb88c8	-0.0015528435
66	0xbca28b36	-0.019841772
67	0xbc0e5e4c	-0.008689474
68	0xbb29c4c3	-0.0025904633
69	0x3bef15d3	0.007296303
70	0xbc39c80c	-0.011339199
71	0xba79d62e	-0.00095305115
72	0xbc708d28	-0.014682092
73	0xbae52758	-0.0017483039
74	0x3c7464cb	0.014916609
75	0x3d1f137a	0.038836934
76	0xba539738	-0.00080715446
77	0x3d11461f	0.035467263
78	0x3d0ed853	0.03487427
79	0xbcbd7294	-0.023125924
80	0xbac2c7b2	-0.0014860539
81	0x3c80f78b	0.015743038
82	0xbc920cc9	-0.017828362
83	0x3c4b2088	0.012397893
84	0x3ce75bf9	0.028242098
85	0x3cd78e71	0.026313039
86	0x3d1d29c9	0.038369928
87	0xbca9d268	-0.020730212
88	0x3cf1e2fc	0.02952718
89	0xbca6f68c	-0.020381235
90	0xbc8a95c4	-0.016917117
91	0x3c1d99ce	0.009619189
92	0x3c089c9d	0.008338121
93	0xbc03bdb0	-0.0080408305
94	0x3c9b3ee1	0.018950881
95	0x3c087863	0.008329484
96	0x3b9e5c60	0.0048327893
97	0x3cc5fdad	0.024168814
98	0x3cf94886	0.03043009
99	0x3d8023ac	0.06256804
100	0x3d0834aa	0.03325335
101	0x398dafec	0.00027024688
102	0x3c8f7cff	0.017515657
103	0x3d56e918	0.05246839
104	0x3cc97ccf	0.024595646
105	0xbc1f8878	-0.0097371265
106	0xbca092e3	-0.019601291
107	0x3d1eafe0	0.038741946
108	0x3d1238a7	0.03569856
109	0x3cffaff2	0.031211827
110	0x3c2091f2	0.009800421
111	0x3ceb2cf7	0.028707964
112	0x3d07aeba	0.033125617
113	0x3c0b6611	0.008508221
114	0x3b48a122	0.003061362
115	0x3c7b6974	0.015344966
116	0xbc2de2c8	-0.010613151
117	0xbb492557	-0.0030692422
118	0xbc701fcf	-0.014656021
119	0xbb6276af	-0.0034555604
120	0x3d488827	0.04895797
121	0xbca441c7	-0.020050896
122	0x3d360e19	0.04444704
123	0xbd0eced3	-0.03486521
124	0x3c873d5a	0.016508747
125	0x3bab078e	0.0052194064
126	0x3a588746	0.00082599034
127	0xbc5542e2	-0.013016434
128	0x3b8dc584	0.004326524
129	0xbd19bbc9	-0.0375326
130	0x3d0bf5fd	0.03417014
131	0x3ce895a9	0.028391676
132	0x3d0513cc	0.032489583
133	0xbc92350e	-0.017847564
134	0xbc962d33	-0.0183321
135	0x3abccbbb	0.0014403978
136	0xb9d89c48	-0.0004131517
137	0xbc2f92bf	-0.010716139
138	0xbc768076	-0.015045276
139	0xbb5f9b34	-0.0034119608
140	0x3cdcc143	0.026947623
141	0x3d109487	0.035297897
142	0x3cffd117	0.031227631
143	0xbce16d0d	-0.02751782
144	0x3c7a82d3	0.01528998
145	0x3bf425be	0.0074507883
146	0x3d28f3f3	0.041248273
147	0x3a196cde	0.00058527093
148	0xbd1f8b43	-0.03895117
149	0xbd688580	-0.05676794
150	0xbd395cbc	-0.045254454
151	0xbd6c5da3	-0.057706486
152	0xbca99d17	-0.02070479
153	0xbd4c8ba9	-0.049937878
154	0xbcbbcd3e	-0.022925016
155	0xbd88f46a	-0.06687243
156	0xbc8cda7d	-0.017194027
157	0x3b9834a8	0.004644949
158	0xbb99edba	-0.0046975287
159	0x3d6373a4	0.055530205
160	0xbc6ac04b	-0.014328073
161	0x3d03321f	0.03203022
162	0xba36909b	-0.0006964297
163	0x3c890f25	0.016730854
164	0x3d181adb	0.037134986
165	0xbd054997	-0.032540884
166	0x3cea0f88	0.028571859
167	0x3c2eaf2c	0.010661881
168	0xbce10b0d	-0.02747109
169	0x3c78b305	0.0151794
170	0xbce7edc4	-0.028311618
171	0x3ce0e26e	0.02745172
172	0x3d585460	0.05281484
173	0x3cf31e08	0.029677406
174	0xbb7b37a1	-0.0038332718
175	0x3c78a604	0.0151763
176	0xbc06a0fe	-0.0082170945
177	0xbd08e784	-0.033423916
178	0xbd57f6a6	-0.052725457
179	0xbba977c5	-0.0051717483
180	0xbd1dd0a4	-0.038529053
181	0xbdcf7f41	-0.10131694
182	0xbdd58182	-0.10425092
183	0xbd68cb2a	-0.056834377
184	0xbd54d17a	-0.051957585
185	0xbd092ed3	-0.03349192
186	0x3b60b60a	0.0034288191
187	0xbca5e020	-0.020248473
188	0xbcdead57	-0.027182264
189	0xbb1e7c83	-0.0024183101
190	0xbbc1403f	-0.0058975513
191	0x3a221d1f	0.0006184149
192	0x3ccc2749	0.024921076
193	0xbcdd0914	-0.026981868
194	0xbc0d65f0	-0.008630261
195	0x3cd66cde	0.026174959
196	0xbb86cbb9	-0.004113641
197	0x3cd98c7c	0.026556246
198	0xbc41b557	-0.01182302
199	0x3c43874b	0.011934112
200	0x3c67c960	0.014147133
201	0x3d236b66	0.039897345
202	0x3c24ae80	0.01005137
203	0xbd350d7a	-0.044202305
204	0xbd89aa83	-0.06721976
205	0xbd227d64	-0.039670363
206	0xbb07377f	-0.0020632443
207	0xbd8bce2c	-0.068264335
208	0xbd4fda16	-0.050745092
209	0xbdd80b98	-0.10549086
210	0xbdc7573e	-0.09733437
211	0xbd89dedc	-0.0673196
212	0xbd0500b2	-0.032471366
213	0xbd3bde75	-0.04586645
214	0xbd104faa	-0.035232224
215	0xbd620b9c	-0.055186853
216	0xbd9358a9	-0.07194645
217	0xbda7d5e4	-0.08195093
218	0xbca85315	-0.02054743
219	0xbd110096	-0.03540095
220	0xbd11b6e4	-0.03557481
221	0x3bfbff26	0.007690328
222	0x3bcdd7fe	0.006281852
223	0x36ce1f46	6.142919e-06
224	0x3d0dcf42	0.034621485
225	0xbc843a10	-0.016140968
226	0x3ccf8008	0.025329605
227	0xbc51e432	-0.012810754
228	0x3af58554	0.0018731751
229	0x3ccb7c09	0.024839418
230	0x3bc7f3c3	0.0061020567
231	0xbd4c8618	-0.04993257
232	0xbd5e9814	-0.05434425
233	0xbd87f0f4	-0.06637755
234	0xbd0c0757	-0.034186687
235	0xbdefd0ec	-0.117097706
236	0xbdf90fb5	-0.12161199
237	0xbda8c4c5	-0.08240656
238	0xbdd8ad61	-0.105799444
239	0xbd979821	-0.07402063
240	0x3c568eb7	0.013095549
241	0x3d05c563	0.032658946
242	0xb9fbbad6	-0.00048013654
243	0xbbaaad48	-0.005208645
244	0xbbb8b7c6	-0.005637142
245	0xbd87fbe0	-0.06639838
246	0xbc8d2372	-0.017228816
247	0xbd77cbf3	-0.060497236
248	0xbd276b06	-0.04087355
249	0xbc79fa53	-0.015257436
250	0x3cd1d71d	0.02561527
251	0xbcee7e88	-0.02911307
252	0x3d041a0a	0.032251395
253	0x3cadae2e	0.02120122
254	0x3cad29b7	0.021138055
255	0x3d1b247a	0.037876584

bias f4 [128]
0	0xbd1ef680	-0.0388093
1	0x3c9f793a	0.019466985
2	0xbc685b23	-0.014181885
3	0x3cd9db9d	0.026593978
4	0xbb518f6a	-0.003197635
5	0xbc70056d	-0.014649731
6	0xbc63cf16	-0.013904354
7	0x3c1c73e0	0.009549111
8	0xbcaa10d0	-0.02075997
9	0xbc4be87a	-0.012445563
10	0xbc91cefe	-0.017798897
11	0xbcd945a2	-0.026522461
12	0xbc222ad0	-0.009897903
13	0xbc90ed77	-0.017691357
14	0xbcd7652a	-0.026293356
15	0x3d01d807	0.03170016
16	0x3c84075e	0.016116794
17	0xbd17692a	-0.036965527
18	0x3d120193	0.035646033
19	0xbc603135	-0.013683607
20	0xbc037517	-0.008023522
21	0x3c0ddd9d	0.008658794
22	0x3b8b6b24	0.0042547155
23	0x3c563746	0.013074702
24	0x3bfb130a	0.0076621817
25	0xbcf489f0	-0.02985093
26	0xbce1e15e	-0.027573284
27	0xbc619ba0	-0.013770014
28	0x3bd9ff2f	0.0066527347
29	0xbce0455f	-0.027376829
30	0xbcd07eb0	-0.025451034
31	0x3c257d7d	0.0101007195
32	0xbc559129	-0.013035097
33	0x3c850cfc	0.016241543
34	0x3c2c5fe7	0.010520912
35	0x3b443b9a	0.0029942752
36	0xbd131528	-0.035908848
37	0xba4df170	-0.00078561064
38	0xbb75f17e	-0.0037527974
39	0xbcc53c35	-0.02407656
40	0xbc995aeb	-0.01872011
41	0xbc17faa2	-0.009276064
42	0xbcc42826	-0.023944926
43	0xbcfa317e	-0.030541178
44	0x3cfcba0c	0.030850433
45	0x3ce4ff79	0.02795385
46	0x3c912ad8	0.017720625
47	0x3d08d9b4	0.033410743
48	0xbcb70360	-0.022340477
49	0x3cac3aa9	0.021024065
50	0x3c2fb9f3	0.010725486
51	0x3d063911	0.032769267
52	0x3adbb171	0.0016761256
53	0x3c8fe9c2	0.01756752
54	0xbc46e9f2	-0.012140738
55	0xbc0e808d	-0.008697641
56	0x3c0debee	0.008662207
57	0x3c98e558	0.018664047
58	0x3caac3a6	0.020845246
59	0x3ae3b3a6	0.0017372265
60	0xbcbef3da	-0.023309637
61	0x3d00f009	0.031478915
62	0x3cc79709	0.024364011
63	0xb89bfc79	-7.438003e-05
64	0xbce528fd	-0.027973646
65	0xbc9c6f65	-0.019096086
66	0x3c3db2f3	0.011578309
67	0x3ca6ef71	0.020377846
68	0x3cae111f	0.021248398
69	0x3d1c6d31	0.03819007
70	0xbcb2198f	-0.021740703
71	0xbcb779d1	-0.022396954
72	0xbc8b44fb	-0.017000666
73	0x3c7e5bf0	0.015524849
74	0x3cae3bd8	0.02126877
75	0xbcb2373a	-0.02175485
76	0x3ac5e745	0.0015098831
77	0x3d1440cf	0.03619462
78	0xbc6c499f	-0.0144218495
79	0x3c819d0a	0.015821952
80	0xbcaddbe7	-0.021223022
81	0x3c60587d	0.013692972
82	0xbcf0dcef	-0.029402224
83	0x3c422633	0.011849928
84	0xbbb931eb	-0.0056517026
85	0xbc0187d4	-0.007905919
86	0x384bc9bc	4.858685e-05
87	0x39181dc8	0.00014506944
88	0x3c02f0b5	0.007991959
89	0x3cae4268	0.0212719
90	0xbb9ada72	-0.0047257477
91	0x3c1b9f07	0.009498364
92	0x3d14e54e	0.036351494
93	0xbc85ab37	-0.016316993
94	0x3c920deb	0.017828902
95	0x3cf2ea47	0.029652728
96	0x3c9c461c	0.0190764
97	0xbcd6feb7	-0.026244504
98	0xbadb89ed	-0.0016749479
99	0x3cad2738	0.021136865
100	0x3ce06bf3	0.027395224
101	0xbd2d108c	-0.04225211
102	0x3cbf5d24	0.023359843
103	0x3cdff63a	0.02733909
104	0xbc559add	-0.013037411
105	0x3c917c89	0.017759578
106	0x3c91e129	0.01780756
107	0x3c8c1273	0.017098641
108	0x3c43050c	0.011903059
109	0xbcec49f0	-0.02884385
110	0x3c48d0f1	0.012256847
111	0xbcb8a528	-0.02253969
112	0x3c9e0c1e	0.019292887
113	0xbc8b9d5e	-0.017042812
114	0x3c9d302b	0.019188007
115	0x3b6f3c2c	0.003650437
116	0xbbf6c918	-0.0075312965
117	0x3c0b936d	0.008519036
118	0xbcfa39f9	-0.030545222
119	0x3c9da62f	0.019244282
120	0x3cf17ca7	0.029478384
121	0xbb41f032	-0.002959263
122	0xbc5425c9	-0.012948462
123	0xbbd1c77a	-0.0064019533
124	0x3d09586a	0.033531584
125	0xbc03d615	-0.008046647
126	0x3d223cc5	0.039608736
127	0x3c9a5844	0.018840916

weight f4 [64, 128]
0	0xbd3215d2	-0.04347784
1	0x3da6fd70	0.08153808
2	0x3db31c0c	0.08745584
3	0x3d1ffa4e	0.03905707
4	0xbb8792e7	-0.004137385
5	0x3da03ef9	0.07824511
6	0xbd54a5fb	-0.051916104
7	0x3dd1dc9b	0.10247155
8	0xbc4dc8ff	-0.012560128
9	0xbb1df9ff	-0.0024105308
10	0xbe02e00e	-0.12780783
11	0x3e1272a9	0.14301552
12	0xbc36b8dd	-0.011152473
13	0xbd8ffbd2	-0.07030453
14	0x3d032e9d	0.032026876
15	0xbe216c28	-0.15763915
16	0x3d2291b9	0.039689753
17	0xbd05c580	-0.032659054
18	0xbafa0de7	-0.001907763
19	0xba024d43	-0.00049706193
20	0x3d9ecaa8	0.07753497
21	0xbcea626d	-0.028611386
22	0xbe6d74ac	-0.23189038
23	0xbd9b88ef	-0.075944774
24	0x3e0a3324	0.13496071
25	0x3e2fb845	0.17160137
26	0xbd6261b1	-0.055268947
27	0x3d45346c	0.048145697
28	0x3dcb09b8	0.09913963
29	0x3cb56de5	0.022147128
30	0x3e18aacf	0.14908908
31	0xbc012c4f	-0.007884099
32	0xbcce8121	-0.025208058
33	0x3d20ab62	0.039225943
34	0x3e5e2ecb	0.21697538
35	0x3e16e391	0.14735247
36	0xbcd944f1	-0.026522132
37	0xbd29c918	-0.041451544
38	0x3dfbcc23	0.12294795
39	0xbb2ff11e	-0.0026846598
40	0x3d107d8d	0.035275985
41	0xbdd8b2d7	-0.10580986
42	0xbe017919	-0.12643851
43	0xbda26ba8	-0.0793069
44	0x3d907592	0.07053675
45	0x3e04b543	0.12959771
46	0xbe22255b	-0.15834562
47	0xbe4a3dbb	-0.19750111
48	0xbe2ae2a0	-0.16688013
49	0x3db7662d	0.08955035
50	0x3d130b34	0.035899356
51	0xbcbb7efc	-0.0228877
52	0x3e1c9f49	0.15295137
53	0xbd85cdb1	-0.06533373
54	0x3db18547	0.08667999
55	0x3b763fb6	0.0037574596
56	0xbd139b88	-0.036036998
57	0x3c45a33e	0.012062846
58	0x3dc56673	0.09638681
59	0x3e8407ad	0.25787106
60	0x3eada62f	0.3391585
61	0xbd118136	-0.035523616
62	0x3e2a9095	0.16656716
63	0xbd2687ab	-0.040656727
64	0xbe1553ef	-0.145828
65	0x3dd2403a	0.102661565
66	0x3c1a1f6a	0.009406904
67	0xbe92c388	-0.28664804
68	0xbdcd76e9	-0.10032446
69	0xbe8fbb42	-0.28072554
70	0x3de4f70a	0.111799315
71	0xbdca8e58	-0.09890431
72	0x3e4b60b8	0.19861114
73	0x3ceb774b	0.028743407
74	0x3c39873f	0.011323749
75	0x3d66288a	0.056191005
76	0xbcfe7be1	-0.03106493
77	0x3e10552d	0.14094992
78	0x3b8c9097	0.0042896974
79	0x3e2e3b87	0.17014895
80	0x3cb1ef2a	0.021720488
81	0xbe5eba7b	-0.21750824
82	0x3da0c568	0.07850152
83	0xbd0c1bb3	-0.034206104
84	0x3d97125f	0.07376551
85	0xbd8cdfcf	-0.068786256
86	0xbdaed22f	-0.08536183
87	0xbd57059d	-0.052495588
88	0xbdd1d364	-0.10245398
89	0x3d311c35	0.04323979
90	0x3dda1c13	0.10649886
91	0x3cd35e21	0.02580172
92	0x3d5c3bae	0.053767852
93	0x3d7cd715	0.061728556
94	0xbdd440fe	-0.10363959
95	0x3df6b81f	0.12046837
96	0xbca02799	-0.019550132
97	0x3d951e27	0.07281142
98	0x3d16ea94	0.036844805
99	0xbd5d498b	-0.054025214
100	0xbd795ff7	-0.060882535
101	0x3e569567	0.2095543
102	0x3d9ebb84	0.077506095
103	0xbd3c55e7	-0.04598036
104	0xbdab5448	-0.08365685
105	0x3c836099	0.016037272
106	0xbd1286ff	-0.035773274
107	0x3d81f301	0.063451774
108	0x3b282269	0.0025655276
109	0x3d6b50bc	0.05745004
110	0x3ce7683f	0.02824795
111	0xbd83f11f	-0.064424746
112	0xbd0ae80c	-0.033912703
113	0x3d65bf6c	0.056090757
114	0x3d1b6f34	0.03794785
115	0x3c84a954	0.016194023
116	0xbdd51aaa	-0.104054764
117	0x3bd79a89	0.0065797013
118	0xbd8b0e85	-0.06789879
119	0xbbb73937	-0.0055915373
120	0xbdb79842	-0.08964588
121	0xbd20bacd	-0.039240647
122	0x3eae22c7	0.34010908
123	0x3ca98c4c	0.020696782
124	0x3e03d6c5	0.12874897
125	0xbca43610	-0.02004531
126	0xbe77ca14	-0.2419818
127	0x3dac64b8	0.08417648
128	0x3de11778	0.109908044
129	0x3d15b273	0.036547136
130	0xbdb02b02	-0.08601953
131	0x3d9d2868	0.076737225
132	0xbdc2d2ea	-0.09512885
133	0x3e30dd18	0.1727184
134	0xbd235673	-0.039877366
135	0x3db0d192	0.08633722
136	0x3c85d3a2	0.016336266
137	0x3ddfe275	0.10931865
138	0xbcb862b7	-0.022508008
139	0xbd27bf05	-0.040953655
140	0xbd8802aa	-0.06641133
141	0x3d80e7a4	0.06294182
142	0xbd87d5be	-0.06632565
143	0xbd9d8f43	-0.07693341
144	0x3e112ff2	0.14178446
145	0x3da5ba0f	0.080921285
146	0xbdfa4391	-0.122199185
147	0xbda4be2e	-0.080440864
148	0x3e135acc	0.14390105
149	0x3d2003f8	0.039066285
150	0xbc76a484	-0.015053872
151	0xbd1db4aa	-0.038502373
152	0x3bcf5d8f	0.0063282917
153	0x3db89456	0.09012668
154	0x3d99621f	0.07489418
155	0xbd8d4cd8	-0.068994224
156	0xbd270979	-0.04078052
157	0x3d972b49	0.07381303
158	0x3de18be0	0.11013007
159	0x3c9dafe5	0.019248912
160	0xbd32ed85	-0.043683548
161	0xbc125ae7	-0.008932806
162	0xbdeb0d7a	-0.1147718
163	0xbd1077d0	-0.035270512
164	0xbdebbc57	-0.11510532
165	0xbd92d75b	-0.07169982
166	0xbd9a2273	-0.07526102
167	0xbe1b7369	-0.15180744
168	0xbd077d60	-0.03307855
169	0xbd86d9f5	-0.06584541
170	0x3d189134	0.03724785
171	0x3dffca59	0.12489767
172	0xbccacf9d	-0.0247572
173	0xbd6b4465	-0.057438273
174	0x3cb29883	0.021801239
175	0x3dc8d112	0.09805502
176	0xbdba8c74	-0.091088206
177	0x3df96f08	0.12179381
178	0x3dab2913	0.08357444
179	0x3db6643e	0.089058384
180	0x3df8a0ec	0.121400684
181	0xbab95de8	-0.0014142366
182	0x3ded73fe	0.115943894
183	0xbe10d7bc	-0.14144796
184	0xbd2ef35d	-0.042712558
185	0x3c6a7599	0.014310264
186	0x3d839a4f	0.064259164
187	0x3e127d85	0.14305694
188	0x3d81bf36	0.06335299
189	0xbdcf257c	-0.101145715
190	0x3dc7962f	0.09745442
191	0x3dda7e26	0.10668592
192	0x3c2057b4	0.009786535
193	0x3e033f79	0.12817182
194	0x3d7d8978	0.06189868
195	0xbb3016e3	-0.002686911
196	0xbe1061d9	-0.14099826
197	0x3d2369ab	0.039895695
198	0xbde978b0	-0.113999724
199	0xbdde15d2	-0.10844006
200	0xbdcc097e	-0.09962748
201	0x3e18847e	0.14894292
202	0x3c551433	0.013005304
203	0xbdb6bbd8	-0.08922547
204	0xbd627541	-0.055287603
205	0xbd83c0d8	-0.064332664
206	0xbcbb940f	-0.022897748
207	0xbc341f88	-0.010993846
208	0x3dadad83	0.0848036
209	0xbe3e445f	-0.18580769
210	0xbd91b986	-0.07115464
211	0x3da900bd	0.08252094
212	0x3dd39e42	0.1033292
213	0xbd88f17f	-0.06686687
214	0x3c94009e	0.0180667
215	0x3ce87a3a	0.028378595
216	0xbe240b43	-0.16019921
217	0x3cb133b3	0.021631097
218	0xbca868e2	-0.020557825
219	0x3e0052e9	0.12531628
220	0x3c2cfd29	0.010558405
221	0xbe2cf3cc	-0.16889876
222	0x3de6793e	0.11253594
223	0x3c8396d0	0.016063124
224	0xbe5e6529	-0.21718277
225	0x3dbfd11f	0.093660586
226	0x3db40249	0.08789498
227	0xbad213fb	-0.0016027683
228	0x3c14f1e7	0.009090877
229	0xbd805da0	-0.062678576
230	0xbe147502	-0.1449776
231	0x3e1366d1	0.1439469
232	0xbde659b8	-0.11247581
233	0x3e58c27c	0.2116794
234	0x3d9186c9	0.07105786
235	0xbbeec2ad	-0.0072863908
236	0xbccbfedf	-0.024901805
237	0xbd7497c6	-0.059715055
238	0x3d83853e	0.06421898
239	0xbba3b51b	-0.0049959547
240	0x3a9d5412	0.0012003204
241	0x3e57872b	0.21047656
242	0x3dc94614	0.098278195
243	0x3c49df47	0.0123213
244	0xbd41e105	-0.047333736
245	0x3d7d4f62	0.061843283
246	0xbd772552	-0.060338326
247	0xbdc406d2	-0.09571613
248	0x3d2049cd	0.039132882
249	0xbd47a15a	-0.04873786
250	0xbd6c809f	-0.05773985
251	0x3df62798	0.12019271
252	0x3e1b063a	0.15139094
253	0xbb1468b6	-0.002264542
254	0x3c4391cc	0.011936616
255	0xbcfa3265	-0.030541608

bias f4 [64]
0	0xbdafe625	-0.085888185
1	0x3d996aef	0.07491099
2	0xba7cb24c	-0.00096396054
3	0x3d94b1e7	0.07260495
4	0xbbfb0af5	-0.0076612183
5	0x3de7ecae	0.1132444
6	0x3cad7fe2	0.021179143
7	0x3baac7cd	0.0052118064
8	0xbdc350a0	-0.095368624
9	0x3d9ac9fb	0.07558056
10	0x3da0e075	0.07855312
11	0x3cf0a3be	0.029374953
12	0x3ce9cc69	0.028539853
13	0xbd525145	-0.051347036
14	0x3db3df58	0.08782834
15	0x3d0e507e	0.034744732
16	0xbd46ba6a	-0.048517622
17	0x3d880004	0.06640628
18	0x3d1dc73f	0.038520094
19	0xbdaeee98	-0.08541602
20	0x3d8c1edc	0.068418235
21	0x3cedf972	0.029049609
22	0xbcf45341	-0.029824855
23	0xbc668301	-0.01406932
24	0x3dae3733	0.08506622
25	0xbd9b86ec	-0.07594094
26	0x3d341462	0.04396475
27	0x3d4151da	0.0471972
28	0x3d97673b	0.073927365
29	0x3d923114	0.07138267
30	0x3d0f1453	0.034931492
31	0x3e06d63d	0.13167663
32	0x3ce174a4	0.027521439
33	0x3d744576	0.059636556
34	0xbd70f1fb	-0.05882452
35	0xbd13c571	-0.036076967
36	0xbd4c4fad	-0.049880672
37	0x3d532240	0.051546335
38	0x3da17052	0.078827515
39	0x3dca911e	0.0989096
40	0x3d5a3d63	0.0532812
41	0xbdc74cd9	-0.097314544
42	0x3dd556f8	0.104169786
43	0x3d4a01df	0.04931819
44	0x3c5da1ba	0.013527328
45	0x3c794dda	0.015216315
46	0xbd1db4a4	-0.03850235
47	0xbcb15e8f	-0.021651534
48	0x3d81cf4f	0.06338369
49	0x3ca6f226	0.020379137
50	0x3d0994e9	0.033589277
51	0x3db71f0e	0.0894147
52	0x3deb3e33	0.11486473
53	0x3c6c4048	0.014419623
54	0xbdb2d525	-0.0873206
55	0x3b8cbc25	0.0042948895
56	0xbcec1ce3	-0.028822368
57	0x3db8dcbc	0.09026477
58	0xbd689c38	-0.056789607
59	0xbd80d8e8	-0.062913716
60	0x3d899a68	0.06718904
61	0xbd566f83	-0.05235244
62	0x3d191be0	0.0373801
63	0xbd81b42e	-0.06333195

weight f4 [10, 64]
0	0x3db36ca2	0.087609544
1	0x3e9697ee	0.29412788
2	0x3dd39ea6	0.10332994
3	0xbdd50cb7	-0.10402816
4	0xbf04534d	-0.51689607
5	0x3dbc9c54	0.09209505
6	0x3d9a5471	0.07535637
7	0xbc26246e	-0.010140521
8	0xbe3709f4	-0.1787489
9	0x3c5dd67a	0.013539905
10	0xbd12189b	-0.035667997
11	0xbdf8d128	-0.121492684
12	0x3e9d22d8	0.30690646
13	0xbabc319a	-0.0014358044
14	0x3d8d2a3b	0.068928204
15	0xbe27088e	-0.16311857
16	0xbd08d873	-0.033409547
17	0x3df0f026	0.11764555
18	0x3e2dee40	0.16985416
19	0xbc53e388	-0.012932666
20	0x3d4b012d	0.04956167
21	0xbda454ec	-0.0802401
22	0xbcdc8621	-0.026919426
23	0x3d9e47ce	0.077285394
24	0x3d93613b	0.071962796
25	0x3ea6d02d	0.325807
26	0x3e92b0df	0.28650567
27	0x3e62e719	0.2215847
28	0x3d3a315c	0.04545723
29	0xbeef49de	-0.46736044
30	0x3e8aef0e	0.2713551
31	0xbec6bfa7	-0.38818094
32	0xbe45fabb	-0.19333927
33	0x3e39f5a9	0.18160118
34	0xbe802aec	-0.25032747
35	0x3ddd8d17	0.108179264
36	0xbd8453e7	-0.064613156
37	0x3dceef48	0.10104233
38	0x3e90c765	0.28277126
39	0xbede67c3	-0.4343854
40	0xbebd9bf0	-0.37033033
41	0xbec564f3	-0.3855358
42	0xbd6771aa	-0.056504883
43	0xbcd9e12b	-0.026596626
44	0xbd31b0eb	-0.043381613
45	0x3dcd2292	0.100163594
46	0x3dbc4edf	0.09194731
47	0xbf02da26	-0.5111412
48	0xbd8d53a8	-0.06900722
49	0x3e8f053f	0.2793369
50	0xbbc92c5c	-0.0061393213
51	0x3ee03b37	0.43795177
52	0xbe0126bb	-0.12612431
53	0xbd4d108e	-0.050064616
54	0xbdfadd7e	-0.122492775
55	0xbe0e879e	-0.13918921
56	0xbe1c4a8c	-0.15262812
57	0xbe81deaf	-0.25365207
58	0xbea85c33	-0.32882842
59	0x3df7d06c	0.121003
60	0x3eaa3009	0.33239773
61	0xbece9f24	-0.4035579
62	0xbe9c1aa6	-0.3048908
63	0x3b5e69b9	0.0033937527
64	0x3e899c8c	0.26877248
65	0x3df2f5f0	0.11863315
66	0xbdabbb11	-0.083852895
67	0x3da1411c	0.07873747
68	0x3efcfa61	0.49409774
69	0x3c80068d	0.015628124
70	0xbdfbf26e	-0.12302099
71	0xbe7aa7de	-0.24478099
72	0x3e8ae6cc	0.2712921
73	0xbde56c55	-0.11202303
74	0x3e796585	0.24355133
75	0x3d9fa520	0.07795167
76	0xbdc340b6	-0.09533827
77	0x3e9c7b04	0.30562603
78	0xbedb82d6	-0.42873257
79	0xbdf4fab8	-0.11961883
80	0xbd98533c	-0.07437751
81	0x3e8760d1	0.26441053
82	0xbdf73dc4	-0.12072328
83	0x3d55fe5d	0.052244533
84	0xbd9be87e	-0.07612704
85	0xbe9f382e	-0.3109755
86	0x3d7bef43	0.061507475
87	0xbda24ea0	-0.07925153
88	0x3c35286e	0.0110570025
89	0xbdb1fc37	-0.08690684
90	0xbe08793b	-0.13327496
91	0xbe1f6065	-0.15564115
92	0x3b8ca681	0.0042923097
93	0x3e9d4a56	0.30720776
94	0x3cfb156c	0.030649863
95	0xbec4a917	-0.38410255
96	0x3e1a0d7b	0.15044205
97	0xbe262c2e	-0.1622779
98	0x3e1ca8ba	0.15298739
99	0xbeb0b74c	-0.34514844
100	0xbe819c89	-0.2531474
101	0x3e21306a	0.15741125
102	0xbd6ace43	-0.057325613
103	0x3e2bb702	0.1676903
104	0xbe8f2c32	-0.27963406
105	0x3ee6b715	0.45061556
106	0x3dc2d974	0.09514132
107	0x3dc2369a	0.09483071
108	0xbd9bee42	-0.076138034
109	0xbe78fadf	-0.2431445
110	0xbdfe07dd	-0.124038436
111	0xbc8ffa83	-0.017575508
112	0xbdd2596b	-0.102709614
113	0xbc67fc11	-0.014159218
114	0xbe19e6b6	-0.15029415
115	0xbec661c2	-0.38746458
116	0xbe7658e8	-0.24057353
117	0x3d47725b	0.048693042
118	0x3b463778	0.0030245464
119	0xbea87d5f	-0.3290815
120	0x3e1d6738	0.15371406
121	0xbe5f032f	-0.21778558
122	0x3e37bfc6	0.1794425
123	0x3e30a75b	0.17251341
124	0xbeaab9fa	-0.33345014
125	0x3e803906	0.25043505
126	0x3ee3dc2c	0.44503915
127	0x3bb9534b	0.0056556812
128	0x3f18bafb	0.5966031
129	0x3e21d840	0.15805149
130	0xbe1fbd4e	-0.15599558
131	0xbd6c4632	-0.05768413
132	0x3e42605a	0.18982068
133	0x3dcb14f1	0.09916104
134	0xbdcabc3e	-0.098991856
135	0xbe82737b	-0.2547873
136	0x3ee36d01	0.444191
137	0xbd9cd4c2	-0.07657768
138	0xbe60c24d	-0.2194912
139	0x3c91e6ef	0.017810313
140	0xbc8bc499	-0.017061519
141	0xbe1bc9b0	-0.15213656
142	0xbe8eb4e6	-0.2787239
143	0x3f02147e	0.5081252
144	0xbd93b6a3	-0.072125696
145	0xbd8c85ed	-0.06861482
146	0x3ebc3dba	0.36765844
147	0xbda26f34	-0.079313666
148	0x3ee9e7f1	0.4568477
149	0xbe9f8144	-0.3115331
150	0xbc364699	-0.01112523
151	0x3bbf8dc6	0.005845758
152	0x3d03d89f	0.032189008
153	0x3e289800	0.16464233
154	0xbdc81427	-0.09769469
155	0xbeae15b7	-0.34000942
156	0x3dfd1808	0.12358099
157	0xbe191dd1	-0.1495278
158	0xbd3be2d1	-0.045870606
159	0x3ea7a0b8	0.32739806
160	0x3e15e941	0.1463976
161	0x3e8fc9e8	0.2808373
162	0xbdd442a8	-0.10364276
163	0x3cadde3b	0.021224132
164	0xbeb2d254	-0.34926093
165	0xbcb039c5	-0.021511922
166	0x3ec57ce2	0.3857184
167	0x3cac8f63	0.021064466
168	0x3e1dfca0	0.154284
169	0xbede8574	-0.43461192
170	0xbe914c19	-0.2837837
171	0xbc48c99b	-0.012255098
172	0xbe2a7867	-0.16647492
173	0xbdd1f7b2	-0.10252322
174	0x3db4a575	0.08820621
175	0x3c5dde42	0.01354176
176	0x3e35a2f6	0.17737946
177	0xbea38774	-0.3193928
178	0xbe8b0a4c	-0.27156293
179	0x3f166aaa	0.58756506
180	0xbddea93b	-0.10872122
181	0x3d6b1e33	0.057401847
182	0x3dd4ed5a	0.10396834
183	0xbe5d18ed	-0.2159154
184	0xbe314afe	-0.17313763
185	0xbe786d64	-0.24260479
186	0xbdd74d19	-0.10512752
187	0xbe3e5f1f	-0.18590973
188	0xbdcc954e	-0.09989415
189	0x3ec1ce2d	0.37852612
190	0xbe47063c	-0.19435972
191	0x3dd953d3	0.10611691
192	0xbf122327	-0.5708489
193	0x3c45be07	0.012069232
194	0x3d9bb558	0.07602948
195	0xbd5829c1	-0.052774195
196	0x3ed0e38e	0.4079861
197	0xbe32ed27	-0.17473279
198	0xbd818edf	-0.063260786
199	0xbe1e5ef6	-0.15465912
200	0x3c8665e1	0.016406002
201	0x3d2d5fb7	0.04232761
202	0xbe751e11	-0.2393725
203	0x3d2971ae	0.04136818
204	0xbde0f190	-0.109835744
205	0x3d1cb391	0.038257185
206	0x3e489126	0.1958662
207	0x3e186131	0.14880826
208	0xbca1b4e5	-0.019739578
209	0xbef33a42	-0.47505385
210	0x3dd20dd9	0.102565475
211	0x3d44bdac	0.048032448
212	0xbdb51839	-0.08842511
213	0xbe684889	-0.2268392
214	0xbdb22af1	-0.08699597
215	0x3de75342	0.11295177
216	0xbe4db4d2	-0.20088509
217	0x3df0b231	0.11752737
218	0xbe7319f2	-0.23740366
219	0xbccddb33	-0.025128936
220	0x3db8fa78	0.09032148
221	0x3e80b620	0.2513895
222	0xbecb24a0	-0.3967638
223	0xbd80b5ef	-0.06284701
224	0xbe698211	-0.22803523
225	0xbe194bcd	-0.14970322
226	0x3e69dce5	0.22838171
227	0xbec5e53f	-0.38651463
228	0xbe6be217	-0.23035465
229	0x3ed74114	0.42041838
230	0xbed24966	-0.41071624
231	0xbed465d2	-0.41483933
232	0x3ef6e293	0.48219737
233	0x3ea6ef56	0.32604474
234	0x3ed8978d	0.42303124
235	0x3debbd30	0.11510694
236	0x3ca25cac	0.01981958
237	0x3ec81488	0.39078164
238	0xbccf3dd4	-0.025298037
239	0x3e48aa3e	0.19596192
240	0xbe306c4e	-0.17228815
241	0x3e13b7fe	0.14425656
242	0xbdc01a8c	-0.093800634
243	0x3e7b4637	0.24538504
244	0xbe44e0d3	-0.19226389
245	0x3bbc7a61	0.0057518934
246	0xbd7649cf	-0.060128983
247	0x3e887985	0.26655212
248	0xbe1599bb	-0.14609425
249	0x3e09dffc	0.1346435
250	0xbcf23f63	-0.02957124
251	0x3da9d185	0.08291916
252	0x3dab996d	0.08378873
253	0xbd85475d	-0.06507752
254	0x3edf4e32	0.43614346
255	0x3d65efdc	0.05613695

bias f4 [10]
0	0xbc995279	-0.018716084
1	0x3d075a30	0.033044994
2	0x3d517884	0.051140323
3	0x3dd38d75	0.10329715
4	0xbcbc53c8	-0.022989169
5	0xbdf12ab3	-0.11775722
6	0xbdaff9bf	-0.08592557
7	0xbc5f6053	-0.013633805
8	0x3c4076f0	0.011747107
9	0xbd90e149	-0.0707422
